{"modelTopology":{"class_name":"Model","config":{"name":"model1","layers":[{"name":"input1","class_name":"InputLayer","config":{"batch_input_shape":[null,128],"dtype":"int32","sparse":false,"name":"input1"},"inbound_nodes":[]},{"name":"embedding_Embedding1","class_name":"Embedding","config":{"input_dim":104,"output_dim":128,"embeddings_initializer":{"class_name":"RandomUniform","config":{"minval":-0.05,"maxval":0.05,"seed":null}},"embeddings_regularizer":null,"activity_regularizer":null,"embeddings_constraint":null,"mask_zero":true,"input_length":128,"name":"embedding_Embedding1","trainable":true,"batch_input_shape":[null,128]},"inbound_nodes":[[["input1",0,0,{}]]]},{"name":"bidirectional_Bidirectional1","class_name":"Bidirectional","config":{"merge_mode":"concat","layer":{"class_name":"LSTM","config":{"name":"lstm_LSTM1","trainable":true,"units":64,"activation":"tanh","recurrent_activation":"hard_sigmoid","use_bias":true,"kernel_initializer":{"class_name":"VarianceScaling","config":{"scale":1,"mode":"fan_avg","distribution":"normal","seed":null}},"recurrent_initializer":{"class_name":"Orthogonal","config":{"gain":1,"seed":null}},"bias_initializer":{"class_name":"Zeros","config":{}},"unit_forget_bias":null,"kernel_regularizer":null,"recurrent_regularizer":null,"bias_regularizer":null,"activity_regularizer":null,"kernel_constraint":null,"recurrent_constraint":null,"bias_constraint":null,"dropout":0.1,"recurrent_dropout":0.1,"implementation":null,"return_sequences":false,"return_state":false,"go_backwards":false,"stateful":false,"unroll":false}},"name":"bidirectional_Bidirectional1","trainable":true},"inbound_nodes":[[["embedding_Embedding1",0,0,{}]]]},{"name":"dense_Dense1","class_name":"Dense","config":{"units":128,"activation":"relu","use_bias":true,"kernel_initializer":{"class_name":"VarianceScaling","config":{"scale":1,"mode":"fan_avg","distribution":"normal","seed":null}},"bias_initializer":{"class_name":"Zeros","config":{}},"kernel_regularizer":{"class_name":"L1L2","config":{"l1":0,"l2":0.001}},"bias_regularizer":null,"activity_regularizer":null,"kernel_constraint":null,"bias_constraint":null,"name":"dense_Dense1","trainable":true},"inbound_nodes":[[["bidirectional_Bidirectional1",0,0,{}]]]},{"name":"dropout_Dropout1","class_name":"Dropout","config":{"rate":0.3,"noise_shape":null,"seed":null,"name":"dropout_Dropout1","trainable":true},"inbound_nodes":[[["dense_Dense1",0,0,{}]]]},{"name":"dense_Dense2","class_name":"Dense","config":{"units":3,"activation":"softmax","use_bias":true,"kernel_initializer":{"class_name":"VarianceScaling","config":{"scale":1,"mode":"fan_avg","distribution":"normal","seed":null}},"bias_initializer":{"class_name":"Zeros","config":{}},"kernel_regularizer":null,"bias_regularizer":null,"activity_regularizer":null,"kernel_constraint":null,"bias_constraint":null,"name":"dense_Dense2","trainable":true},"inbound_nodes":[[["dropout_Dropout1",0,0,{}]]]}],"input_layers":[["input1",0,0]],"output_layers":[["dense_Dense2",0,0]]},"keras_version":"tfjs-layers 4.22.0","backend":"tensor_flow.js"},"weightsManifest":[{"paths":["weights.bin"],"weights":[{"name":"embedding_Embedding1/embeddings","shape":[104,128],"dtype":"float32"},{"name":"bidirectional_Bidirectional1/forward_lstm_LSTM1/kernel","shape":[128,256],"dtype":"float32"},{"name":"bidirectional_Bidirectional1/forward_lstm_LSTM1/recurrent_kernel","shape":[64,256],"dtype":"float32"},{"name":"bidirectional_Bidirectional1/forward_lstm_LSTM1/bias","shape":[256],"dtype":"float32"},{"name":"bidirectional_Bidirectional1/backward_lstm_LSTM1/kernel","shape":[128,256],"dtype":"float32"},{"name":"bidirectional_Bidirectional1/backward_lstm_LSTM1/recurrent_kernel","shape":[64,256],"dtype":"float32"},{"name":"bidirectional_Bidirectional1/backward_lstm_LSTM1/bias","shape":[256],"dtype":"float32"},{"name":"dense_Dense1/kernel","shape":[128,128],"dtype":"float32"},{"name":"dense_Dense1/bias","shape":[128],"dtype":"float32"},{"name":"dense_Dense2/kernel","shape":[128,3],"dtype":"float32"},{"name":"dense_Dense2/bias","shape":[3],"dtype":"float32"}]}],"format":"layers-model","generatedBy":"TensorFlow.js tfjs-layers v4.22.0","convertedBy":null}